models-test/test/model_data.pt (torch_old, 1252 bytes, 3 tensors)

input_layer.weight f4 [4, 22]
8.264071 3.3964632 8.840668 7.160523 7.1851573 7.2207923 7.038535 5.8606825
8.556389 7.4422565 7.0958257 0.7732571 4.9671497 7.5679083 7.2149343 7.3050013
6.9464774 7.3607135 6.891733 7.0917897 7.3898396 0.7790539 -8.072648 1.4343253
-7.70138 -7.300498 -6.968408 -6.7710443 -7.264902 -3.3226378 -7.4467473 -7.2435503
-7.088243 3.4895983 2.332124 -7.3316245 -7.112348 -7.3096805 -7.3214808 -7.3164506
-6.8914285 -7.107068 1.4998118 3.3862076 7.4986806 -0.7878751 7.1308966 6.7829084
7.0031624 6.9267845 7.1795173 -0.427787 7.39222 7.0133724 6.792767 -3.7552407
-0.42980453 6.9257584 6.7161536 6.872849 7.2361493 7.1757274 6.8056383 7.08373
4.383787 -4.2413344 -6.046269 7.7876363 -6.5650954 -6.7787066 -6.5329876 -6.851482
-6.351719 8.702032 -6.5425797 -6.745097 -6.8233914 9.45465 9.454626 -6.3625245
-6.7526045 -6.5824666 -6.627672 -6.427761 -6.7956023 -6.786347 9.5835705 9.430773
00000000: a339 0441 a75f 5940 6073 0d41 0123 e540
00000010: cfec e540 bb10 e740 ae3b e140 b68a bb40
00000020: f8e6 0841 f726 ee40 0111 e340 2df4 453f
00000030: e4f2 9e40 4e2c f240 bee0 e640 92c2 e940
00000040: 8b49 de40 f78a eb40 1489 dc40 f1ef e240
00000050: 9179 ec40 1470 473f 9129 01c1 f997 b73f
00000060: b471 f6c0 ae9d e9c0 33fd dec0 65ac d8c0
00000070: 147a e8c0 19a6 54c0 c14b eec0 2acb e7c0
00000080: e3d2 e2c0 9455 5f40 8541 1540 ab9c eac0
00000090: 5b98 e3c0 e7e8 e9c0 9249 eac0 5d20 eac0
000000a0: 9586 dcc0 1a6d e3c0 d5f9 bf3f a0b7 5840
000000b0: 31f5 ef40 2fb2 49bf 4e30 e440 960d d940
000000c0: e819 e040 38a8 dd40 9bbe e540 e606 dbbe
000000d0: 118d ec40 8c6d e040 595e d940 dd55 70c0
000000e0: 570f dcbe d09f dd40 bbea d640 61ee db40
000000f0: 898e e740 8f9f e540 cac7 d940 ebad e240
00000100: fc47 8c40 03b9 87c0 097b c1c0 5134 f940
00000110: 4315 d2c0 2aeb d8c0 3c0e d1c0 573f dbc0
00000120: 4841 cbc0 863b 0b41 d05c d1c0 d6d7 d7c0
00000130: 3959 dac0 3f46 1741 2646 1741 cd99 cbc0
00000140: 5615 d8c0 91a3 d2c0 e415 d4c0 38b0 cdc0
00000150: 9375 d9c0 c129 d9c0 4e56 1941 72e4 1641

input_layer.bias f4 [4]
7.582637 -7.259674 7.1126733 -6.5068474
00000000: f6a4 f240 404f e8c0 059b e340 1838 d0c0

output_layer.weight f4 [1, 4]
6.5232196 -6.7387176 6.4355683 7.1240296
00000000: 37be d040 93a3 d7c0 2df0 cd40 0df8 e340
