models/0e94c356-f9d4-4bfd-b4ab-0437fd33f06d/model_data.pt (torch_old, 1458 bytes, 3 tensors)

input_layer.weight f4 [7, 19]
00000000: 3d9a a7bf 3674 92bf 69c7 b1bf 3304 9ebf
00000010: cbc6 8bbf fb00 a83f ed9a 99bf 091b 87bf
00000020: 96fb b1bf 3487 b8bf ddf9 b4bf a779 9e3f
00000030: 43db a6bf 2440 a73f 434c 85bf 3dcd 82bf
00000040: d3b3 ac3f 94c5 a0bf 6c82 aabf fbf2 9abf
00000050: a3db b2bf c5d5 94bf ee83 89bf b53f afbf
00000060: 7cb5 833f a427 86bf a408 90bf a60e adbf
00000070: 6b54 aebf 6e32 99bf 659a a63f 9fd8 b2bf
00000080: a25a 983f b43e 87bf eec8 b2bf 1689 843f
00000090: 9410 96bf 262d 91bf 67da b0bf ad09 85bf
000000a0: 124b a8bf 3af8 7dbf 69a0 8ebf c9b9 863f
000000b0: ff4e 87bf a646 88bf f98b b5bf 3cd5 9ebf
000000c0: 296e 95bf 2b76 aa3f caed 9fbf 9bf5 873f
000000d0: fd74 95bf a93e 91bf b8cd 7e3f 8766 92bf
000000e0: 2a91 9abf 0833 afbf 86db b2bf a5d8 8bbf
000000f0: b892 82bf 2e60 aebf a0dd 8b3f 9275 a5bf
00000100: ab33 a0bf 1f8b 8fbf a42e a8bf d5c8 aebf
00000110: b600 89bf 682b 88bf 5a14 b63f 2017 b9bf
00000120: 06a6 93bf 9b9c b83f 2e06 adbf 8705 a4bf
00000130: 414d 88bf 1db6 9bbf c6cc b7bf 3fb0 b6bf
00000140: 0d7c 90bf ae6b b43f 8fa8 88bf b4fc a5bf
00000150: 2e04 9dbf f4c4 81bf 8206 99bf cfb7 8abf
00000160: 4874 a4bf 113b b03f c51f a2bf c840 89bf
00000170: 81d3 9c3f a52b 81bf 2c33 9cbf ed58 8c3f
00000180: dd7d 803f 787c aa3f 89d7 8b3f d30b 813f
00000190: d6fc b5bf 1f35 933f fdb5 853f 2459 8d3f
000001a0: 7784 9f3f 77c9 ad3f e8a1 b8bf 3f56 aa3f
000001b0: 8327 b6bf 65be 993f c337 b93f a88b abbf
000001c0: 8d9a 973f 9b0b 8e3f 3a25 933f 6335 913f
000001d0: 9c48 b43f 83e9 9d3f 05bd 903f a59f a3bf
000001e0: 6479 993f e321 ab3f d27f 963f 3c8b 993f
000001f0: 3be0 9a3f c579 9bbf 5328 8d3f 77f9 95bf
00000200: c1af a63f 2206 7f3f 3eda 87bf 3427 8a3f
00000210: 3c27 903f
-1.3093945 -1.1441715 -1.388898 -1.2345031 -1.0920042 1.3125299 -1.2000405 -1.0555125
-1.3904903 -1.4416261 -1.4138752 1.2380875 -1.3035663 1.3066449 -1.0413898 -1.0218884
1.3492378 -1.2560296 -1.3321052 -1.2105402 -1.3973278 -1.1627737 -1.0743387 -1.3691317
1.028976 -1.0480847 -1.1252637 -1.3520095 -1.3619512 -1.1968515 1.3015867 -1.3972358
1.1902659 -1.056601 -1.3967569 1.0354335 -1.1723809 -1.1341903 -1.3816651 -1.0393578
-1.314791 -0.9920689 -1.1142703 1.0525447 -1.0570983 -1.064656 -1.4183341 -1.2408824
-1.1674243 1.3317312 -1.2494442 1.0621828 -1.1676327 -1.1347247 0.9953265 -1.1437539
-1.207555 -1.3687449 -1.3973243 -1.092549 -1.0201025 -1.3623102 1.092701 -1.2926505
-1.2515768 -1.1214331 -1.3139234 -1.3655039 -1.0703342 -1.0638247 1.4224961 -1.4460182
-1.1535041 1.4422792 -1.3517511 -1.2814187 -1.0648576 -1.2164952 -1.4359367 -1.4272536
-1.1287857 1.4095361 -1.067644 -1.2967744 -1.22669 -1.013823 -1.1955111 -1.0837344
-1.2847986 1.3768026 -1.2665945 -1.0722895 1.2252046 -1.0091444 -1.2203116 1.0964638
1.003841 1.3319235 1.0925151 1.0081733 -1.4217784 1.1500586 1.0446163 1.1042829
1.24623 1.3577107 -1.442441 1.330757 -1.4230808 1.2011229 1.4470142 -1.3401995
1.184404 1.1097292 1.1495736 1.1344417 1.4084659 1.2336887 1.1307684 -1.2783095
1.199017 1.3369716 1.1757758 1.1995616 1.209968 -1.2146536 1.1027931 -1.1716756
1.3022386 0.9961873 -1.0613477 1.0793214 1.1261973

input_layer.bias f4 [7]
00000000: 5418 90bf 6fdf 8abf c018 80bf 2e8e 87bf
00000010: cd4a b4bf 575f 863f db8b 923f
-1.1257424 -1.0849437 -1.0007553 -1.0590265 -1.4085327 1.0497845 1.144893

output_layer.weight f4 [1, 7]
00000000: babe 83bf f55d 6bbf eb68 7cbf 0434 5ebf
00000010: 96de 5fbf 0dcc 9b3f c239 6c3f
-1.029258 -0.9194024 -0.9859759 -0.8679812 -0.87449014 1.2171646 0.9227563
