models/c6d055b3-6cf6-4cf5-8d2d-b7126d10ed88/model_data.pt (torch_old, 1964 bytes, 3 tensors)

input_layer.weight f4 [13, 19]
00000000: b631 693f 6ed0 8cbf d370 87bf 7ba1 a33f
00000010: e6bf a23f d32c 9d3f 7cea 643f 7723 90bf
00000020: 442f a4bf 8188 6e3f 7f08 823f 0cce 823f
00000030: 185f 933f 0916 a33f d90a a93f 390b 993f
00000040: 1e85 723f 91ff a63f 23c7 8e3f 5d99 643f
00000050: b582 a0bf f177 8abf 8cd4 8f3f 3ff9 963f
00000060: d1b4 983f f7d2 693f 189b 64bf db75 92bf
00000070: 6fd3 7a3f 3517 933f 018a 903f b8f5 a83f
00000080: 86f3 9d3f daae 773f 23f1 8f3f 31f1 a33f
00000090: 8a65 8f3f 8cfe 933f 5747 633f 15e1 69bf
000000a0: 5e3e a6bf 6d72 953f 3cb8 813f 7092 a53f
000000b0: 14f4 a53f 8c42 9ebf 1945 72bf b4f2 9c3f
000000c0: dca1 8b3f 4137 a93f 564a 683f 2634 8e3f
000000d0: bad1 9f3f 64ad 833f 8725 793f 6654 913f
000000e0: 7225 903f b6b2 993f 6c8d 60bf f371 9ebf
000000f0: 5cb6 a73f 3d1c 933f 3386 903f 77ef 883f
00000100: d68f 9cbf 1a2d 71bf ec81 783f 7eaa 8c3f
00000110: 42f8 733f 339c 603f dc9a 6a3f 9987 7f3f
00000120: 4a1b 973f 2ece a53f 734b 8c3f 0bb1 983f
00000130: e97d 88bf 2d0a 603f 43eb 783f 92b5 72bf
00000140: 33d2 72bf 62c0 61bf 4752 8cbf e6af 7a3f
00000150: 694f 853f a80f 7ebf 8e24 a0bf 7091 8abf
00000160: 7f2e 93bf 5910 8cbf 7fa3 9abf 4204 9fbf
00000170: 0807 81bf 1f68 65bf 5e22 61bf 39bc 793f
00000180: ca1d 80bf 125d 93bf 17f9 6b3f d89a 6a3f
00000190: 29a8 953f eb76 a93f 07a6 a8bf 3cc2 7ebf
000001a0: 3087 9c3f 550b 8e3f 9b63 803f e609 843f
000001b0: f9fa 853f 717e 903f 7687 953f 8f57 963f
000001c0: 2e80 873f 80db 853f af87 6cbf 93b0 7e3f
000001d0: e6bc 853f 401c 67bf b939 7dbf 248e 88bf
000001e0: e4fc 6dbf 56e1 8e3f 8bd2 8b3f 510a 6fbf
000001f0: 6a0c a8bf b85c 86bf a018 a0bf ac53 9cbf
00000200: 8fe5 6cbf 28c1 a8bf 70a8 a6bf f08b 72bf
00000210: a785 68bf d385 983f 595b a0bf 0676 8fbf
00000220: 5fbf 903f 58b4 a63f ae96 7b3f a4fe 893f
00000230: 40d4 8fbf a024 84bf 220d 6d3f 4b73 a53f
00000240: 2478 723f d68a a73f dcd0 8c3f 46cc 8e3f
00000250: e393 a53f 601e 923f eb11 a23f 6e7b 603f
00000260: 2d72 80bf eb55 8f3f 8956 a03f c077 a1bf
00000270: 4f62 a6bf 7383 95bf ef3b 87bf 60df 673f
00000280: 4a06 943f b3fb a6bf 8d6e 85bf ebe3 62bf
00000290: f34d 79bf 175f 63bf 6982 89bf 103b 7fbf
000002a0: 5372 9cbf b35a 79bf 8a9a a3bf 9706 94bf
000002b0: d840 a23f b57a 973f c176 90bf febb 92bf
000002c0: 6696 73bf 67e9 88bf e648 a13f 76ba a83f
000002d0: 7a15 75bf 0587 9abf 5314 6dbf dd0f 9bbf
000002e0: 02fd 9bbf 6af8 8fbf 06b3 96bf 4608 88bf
000002f0: 72a6 a3bf a6d1 99bf db7e 9c3f 98d7 8bbf
00000300: b8b3 66bf baf0 953f fb2f 8e3f cb36 6d3f
00000310: 4b16 8f3f 86f3 95bf bba6 6ebf cd6d 9a3f
00000320: 2670 6f3f a32e 823f f479 a03f 3b18 653f
00000330: 879a 6c3f 3508 843f 46c9 943f 02de 783f
00000340: 7484 663f 7f4e 843f f2fb 77bf 697c 83bf
00000350: 6fd0 9e3f 182b 643f 7e7c 993f ab08 a23f
00000360: e6d2 6abf d7c5 9dbf ed22 9e3f 878b a63f
00000370: 6194 8c3f 48c8 a83f dca1 603f bd34 843f
00000380: 3769 6e3f dfff 8a3f 0211 a03f 2dc1 6b3f
00000390: 68e2 803f 64da 61bf b918 a6bf af4d a93f
000003a0: ad0d 6f3f ed87 773f 0778 623f d508 90bf
000003b0: 7264 a4bf e3ca 9f3f af52 903f 6b2c 9a3f
000003c0: 6a7b 9f3f ed4f 6b3f f189 603f 5b3f 703f
000003d0: c552 8c3f 16a4 993f 82d0 9f3f
0.9109148 -1.1001108 -1.0581306 1.2783655 1.2714813 1.2279304 0.89420295 -1.1260823
-1.2826924 0.9317704 1.0158843 1.021913 1.1513395 1.27411 1.3206435 1.195655
0.9473437 1.3046743 1.1154522 0.89296514 -1.2539889 -1.0817853 1.1236739 1.1794814
1.1930181 0.9133753 -0.89299154 -1.1442217 0.9797887 1.1491457 1.1292115 1.3199987
1.2339942 0.9675118 1.1245464 1.2807981 1.1202862 1.1562057 0.8878073 -0.9135907
-1.2987783 1.1675545 1.0134349 1.2935314 1.2965112 -1.2364058 -0.94636685 1.2261567
1.090877 1.3219987 0.9073843 1.1109664 1.2485878 1.028729 0.9732289 1.1353881
1.1261427 1.2007663 -0.8771579 -1.2378525 1.3102527 1.1492993 1.1290954 1.0698079
-1.2231395 -0.94209445 0.97073245 1.098953 0.95300686 0.8773834 0.91642547 0.9981628
1.1805203 1.2953546 1.0960525 1.1929029 -1.0663425 0.87515527 0.9723398 -0.94808304
-0.9485199 -0.8818418 -1.0962609 0.9792465 1.0414859 -0.9924264 -1.2511156 -1.0825634
-1.1498564 -1.0942489 -1.2081145 -1.2423174 -1.0080271 -0.89612 -0.87943065 0.9755283
-1.0009091 -1.1512778 0.92176956 0.9164252 1.1691943 1.3239416 -1.3175668 -0.9951513
1.2228756 1.1097208 1.0030397 1.0315521 1.0467216 1.1288587 1.1681964 1.1745471
1.0585992 1.0457611 -0.92394537 0.9948818 1.0448272 -0.9027748 -0.989162 -1.0668378
-0.92964005 1.1162517 1.0923628 -0.93375117 -1.3128788 -1.0497046 -1.2507515 -1.2213035
-0.9253778 -1.3183947 -1.3020153 -0.9474478 -0.9082894 1.191584 -1.2527877 -1.1207893
1.1308402 1.3023787 0.98276794 1.0780835 -1.1236649 -1.0323677 0.92598164 1.292581
0.9471457 1.3089244 1.1001239 1.1156089 1.2935756 1.141552 1.2661718 0.8768834
-1.0034844 1.1198095 1.2526408 -1.261467 -1.2998751 -1.168074 -1.0565165 0.9057522
1.1564419 -1.3045563 -1.0424362 -0.88629025 -0.97384566 -0.8881697 -1.0742923 -0.996995
-1.2222389 -0.9740402 -1.2781537 -1.1564511 1.2676039 1.1834322 -1.1286241 -1.1463621
-0.95151365 -1.0696229 1.2600372 1.3181903 -0.95735896 -1.2072455 -0.9260914 -1.2114216
-1.2186587 -1.1247685 -1.1773384 -1.0627525 -1.278517 -1.2017105 1.2226213 -1.0925169
-0.9011798 1.1714089 1.1108392 0.9266173 1.1178678 -1.1714942 -0.9322316 1.2064759
0.935305 1.0170482 1.2537217 0.894901 0.9242329 1.0315005 1.1623924 0.9721376
0.9004586 1.0336455 -0.96868813 -1.0272342 1.2407359 0.89128256 1.1991117 1.2658895
-0.91728055 -1.2326001 1.2354409 1.301133 1.0982782 1.3186121 0.8774698 1.0328594
0.93129295 1.0859336 1.250519 0.9209164 1.0069094 -0.8822386 -1.2976295 1.3226832
0.9338024 0.9669178 0.884644 -1.1252695 -1.2843153 1.2483791 1.1275233 1.2044805
1.2459538 0.9191883 0.8771048 0.9384667 1.0962759 1.20032 1.2485507

input_layer.bias f4 [13]
00000000: c7c2 a53f 2ff3 803f 5c0a 603f 0960 683f
00000010: 2b32 68bf b8ca 803f d71f 7dbf 6354 633f
00000020: 704b 8dbf 075b 9abf ad5f 993f b12e 7f3f
00000030: bd13 a23f
1.2950066 1.0074214 0.8751581 0.9077154 -0.9070155 1.0061865 -0.9887671 0.8880064
-1.1038647 -1.2059029 1.1982323 0.9968062 1.2662274

output_layer.weight f4 [1, 13]
00000000: a520 aa3f 6505 9d3f e91a 81bf e7fc 7bbf
00000010: 98ba 7f3f 3e35 64bf 4e2d 5d3f f65f 5abf
00000020: 5762 833f 753e 94bf 9da9 65bf d3e1 56bf
00000030: 7054 903f
1.3291212 1.2267271 -1.0086337 -0.98432773 0.99894094 -0.8914374 0.86397254 -0.85302675
1.0264386 -1.158156 -0.89711934 -0.8393833 1.1275768
